checkpoint.pth (torch, 29399 bytes, 6 tensors)

model.0.weight f4 [64, 37]
00000000: 47d7 bc3d b6bd 653d 89bb a6bc 7a19 1cbe
00000010: 103a c1bd 2e86 cf3c 4b85 133e 6d19 343e
00000020: 3099 1c3e 7e6c e43d dec1 e9bc e177 4d3d
00000030: 09ad 3bbe d3ba 563d e5d8 f93e 1777 c53c
00000040: dcbd c53d 5bbd 463d 730c 453e b803 6d3e
00000050: f95c 843e a269 a7bd 1fc2 973d c9df 87bc
00000060: fdaa ffbe 8a6c 44bd a43d 093e 600b 813d
00000070: 896f 41bd 6bba f6bd 93eb 01bd 0fde 883e
00000080: 7c04 c2bd e09a 6c3c 40c5 95be c496 3ebd
00000090: 230d 79bc 7055 bb3e 6702 54bc b78a 3b3c
000000a0: 5dbc 6bbd 86b6 c7be 37ae 5b3d 9540 0dbe
000000b0: 6c42 fbbc d210 3bbc 9145 0dbd 4f21 893c
000000c0: 5c03 dc3c b618 833d 574a 4a3e a4ce e23d
000000d0: 3d3c 013e 64da 4fbc de4b bd3d 6ec6 bd3c
000000e0: 8473 b33d b2c0 8dbd c04d 57bd 1d5e efbb
000000f0: d87d 58bd 7020 933d 6e29 693d b81f 323d
00000100: ca83 563d 2e5a 7a3c 6fc5 603d a5ce 783e
00000110: 06ae f43d 6ab4 c3bd 5e49 ebbd 6f67 6abf
00000120: 1e2d 953d 0dff 4c3c 6aa5 2d3d f40c 5abe
00000130: b829 993e 31bd 99be a72c d5be 72dd 1bbf
00000140: 48d7 603e 7c6e c13e c474 c6be 6030 bfbe
00000150: 28fc d43d 82c2 973d 57b1 cb3b cafc 6cbd
00000160: 008a 32bd 9ffa 95be b22c 16be 3985 a53e
00000170: 87b6 0dbe 4983 acbf cd6b a6bd 3b9b b9bd
00000180: f9c2 f53d 7be9 7ebd 038d 2abe b7ca b7be
00000190: ad41 30be efb7 a03e fc76 2ebd c5d4 d4bf
000001a0: f608 d5be 637d 3abc 8516 363d 6286 07bf
000001b0: 12c7 73bb 00e3 563d 4954 afbb 0813 1d3e
000001c0: b771 993d 5294 423d df83 063e 47e3 89bc
000001d0: dbdf 5b3d 9984 04bc 5394 edb9 ac94 273e
000001e0: a46c b63d fd15 8d3c 7e42 583d 5880 293d
000001f0: b8cc 21bd 6d38 37bd c0c5 87bd 3215 103d
00000200: 4614 07bd d06f 13bd f16e 08bc 3689 b03e
00000210: cc72 f2be 3250 4ebe a21b 26be 889a e1bf
00000220: 136c 663d b72d ad3d 8c72 5b3d 0f31 0f3e
00000230: 00ab 973d 4ca8 ce3d 0ffc 073e 8f83 9e3d
00000240: 2ada 43bc 6307 15be 5f3e 053b 4ef0 14bb
00000250: d402 dcbd 80f7 1cbe 2811 0ebe f94f 31be
00000260: 5169 37be 163a 1a3e 87ad 4fbd 6259 7cbe
00000270: 66ba df3d 3de5 35bd 9490 863d 48d6 3abe
00000280: d5e1 9bbc 3270 06be 9ed6 da3c 436b bebd
00000290: fe5b 2dbe 7c8e 753d a734 c4bd c385 8d3e
000002a0: 63de 11be 278c 23bd 11fb 213d 6439 b23d
000002b0: 01c2 673e 13bf 95bc 2a8e acbc 7342 55bc
000002c0: a048 b43d 18f3 0d3d 67b3 0b3e ba08 c8bd
000002d0: 44cb 0cbe 198a 443e e496 3b3f 2d57 0f3c
000002e0: e883 553c 901a 0d3d 5688 40bd 7e67 02bc
000002f0: bb7d f0bc c5c4 bcbb 181b af3e dcc8 96be
00000300: db3f f4be e34f d6be 5467 f8bf 335f c7bd
00000310: 85a4 cabc 9bd8 323d 948f a1bb b237 843d
00000320: e46b 08be 845c 373c ec6e fb3d a958 ed3d
00000330: 560f f23d 7cc5 013e e3c8 bf3d 8dd8 d03d
00000340: 05fb 713d 245d 9b3c 4ea4 16bd dbac 043e
00000350: 2f0a d93d d832 053e 8e5c b2bc 43d6 20bb
00000360: cd81 113c f259 83bd 0563 5a3d ba82 9f3d
00000370: 8c53 b73c 01d9 f03a b857 57be 1ce2 2a3e
00000380: 6b54 b7bc 231d 9abc dee8 63bd 0875 b2bd
00000390: 99f2 12bd 5fdc 51be 651f d63d 7c61 d53d
000003a0: 3be3 e43c 08f5 ce3d 41cd f4bc 6f14 d3ba
000003b0: 4969 743e 517b cbbe 489c 133d c2f4 153e
000003c0: 253e da3d 315b e1bc 6ed2 46be d12d 983d
000003d0: 8be3 a13c 1a4a d4bd 50e5 043e 7d94 4bbd
000003e0: 06cb 433d d332 303c 8473 8abe f4c2 c03d
000003f0: 2430 0e3e 9811 c8be ec91 2b3e f812 80be
0.092207484 0.056089126 -0.020353096 -0.15244094 -0.09434903 0.025332537 0.14406316 0.17587824
0.15292811 0.11153506 -0.028534826 0.050163154 -0.18327726 0.052424263 0.4879829 0.024104638
0.096553534 0.048520427 0.1924303 0.2314595 0.25852183 -0.08174445 0.074100725 -0.016586201
-0.4993514 -0.047955073 0.1340242 0.06300998 -0.04722551 -0.12047275 -0.0317188 0.26731917
-0.094735116 0.014441222 -0.29252052 -0.0465305 -0.015200886 0.3658862 -0.012940026 0.011446646
-0.057552684 -0.39006442 0.05363294 -0.13794167 -0.03067132 -0.0114175845 -0.03449017 0.016739516
0.02685707 0.064011976 0.19754921 0.1107457 0.12620635 -0.012686346 0.09242986 0.023165908
0.08762267 -0.06921519 -0.052564383 -0.0073049203 -0.05285439 0.07183921 0.056924276 0.04348728
0.052371778 0.01528029 0.054875787 0.24297579 0.11947255 -0.095558956 -0.11488603 -0.9156408
0.07283996 0.012511981 0.04239408 -0.21294004 0.2991464 -0.30027154 -0.4163563 -0.60884774
0.21957123 0.37779605 -0.3876096 -0.37341595 0.103996575 0.07410146 0.006216209 -0.057858266
-0.04358864 -0.2929277 -0.14665487 0.32328203 -0.1383916 -1.3477565 -0.0812603 -0.09062811
0.12000079 -0.062234383 -0.16655354 -0.35896847 -0.17212553 0.3139033 -0.04259394 -1.6627432
-0.416084 -0.011382434 0.04445507 -0.52939427 -0.0037197513 0.052462578 -0.0053506237 0.15339291
0.074923925 0.04750473 0.13136242 -0.016832007 0.053680282 -0.008088254 -0.00045314673 0.16365308
0.0890744 0.017222399 0.052797787 0.041382164 -0.039501876 -0.044731546 -0.06629515 0.035176463
-0.03297832 -0.035995305 -0.008327232 0.34479684 -0.47353208 -0.2014778 -0.16221479 -1.7625284
0.05625541 0.08455985 0.053576037 0.13983558 0.074056625 0.10090694 0.13279746 0.077399366
-0.01195387 -0.14553599 0.0020331366 -0.002272624 -0.10742727 -0.15328789 -0.13873732 -0.17315663
-0.17911269 0.1506122 -0.050702598 -0.24643472 0.109242246 -0.04440807 0.06570545 -0.18245804
-0.019028584 -0.13128737 0.026713666 -0.09297802 -0.16929623 0.059950337 -0.09580355 0.27641115
-0.1424499 -0.03992858 0.039546076 0.08702353 0.226326 -0.018279588 -0.021063883 -0.013016331
0.088029146 0.03465566 0.13642655 -0.097672895 -0.13749415 0.19193305 0.73277116 0.008748812
0.013031937 0.03444916 -0.04700502 -0.007959245 -0.029356828 -0.0057607614 0.34200358 -0.2945012
-0.47704968 -0.41857824 -1.9406533 -0.09734955 -0.024736652 0.043663602 -0.004930446 0.064559355
-0.13322407 0.011191491 0.12277016 0.11589176 0.11819331 0.1267299 0.09364488 0.10197554
0.05907728 0.018965311 -0.036777787 0.12956564 0.105976455 0.13007677 -0.02177265 -0.0024541772
0.008881045 -0.0641364 0.05331709 0.07788606 0.022378705 0.0018375219 -0.21029556 0.16687816
-0.02237912 -0.018812722 -0.055642 -0.08713728 -0.03587589 -0.20494221 0.10455207 0.10418984
0.027940383 0.1010533 -0.029883029 -0.0016104112 0.23868288 -0.3974252 0.036037713 0.14644149
0.106563844 -0.027509304 -0.1941621 0.07430614 0.019761821 -0.10365696 0.12978101 -0.049702156
0.04780104 0.010754305 -0.27041256 0.09412184 0.13885552 -0.39075923 0.16754884 -0.25014472

model.0.bias f4 [64]
00000000: fb53 563e 4f62 eb3c 2b8e 3fbd 33cb 073c
00000010: 431f f13d b8f2 97bc 91f5 f0bd 34c7 c63d
00000020: 47f2 c7bc 06d9 47be a69f bb3d 3a4b 5f3e
00000030: 1aff 313e 4305 863d 9f4f 28bc 9920 e4bc
00000040: 96e5 df3d afc4 ea3b fdb9 87bd 8143 4ebe
00000050: 1516 51bd 0ba1 013d 25e6 1f3c 0476 e4bc
00000060: 9453 bebd bce6 113e 23db 91bd 52f6 dfbd
00000070: 9697 063e a490 043e 320b a9bd 824a d0bd
00000080: 2869 cd3d 039b 4abb ac4c 0abe b906 073d
00000090: 1f9b b2bd 34a2 823d 90df e9bc 10c9 aabd
000000a0: 86ab 26bd 385c 863d 544d 42be f1c7 583e
000000b0: 6fe6 0a3d bfea 6abd d8a0 503d 669a cbbd
000000c0: 8da4 f9bd 74fb 773c 4736 21be aff6 ee3d
000000d0: b121 1fbb 24a0 28bd 957a d4bd f2b6 683d
000000e0: adf3 263e 1702 4abd 8801 a4bd d980 d5bd
000000f0: 317c 20bd 0b9d 373d bc12 803d 6544 a73d
0.20930474 0.0287334 -0.04676644 0.008288193 0.11773541 -0.018548355 -0.11765588 0.09705964
-0.024407519 -0.19516382 0.0916131 0.2180604 0.1738247 0.06543972 -0.010272889 -0.027847575
0.10932462 0.00716456 -0.06627271 -0.20142938 -0.05104645 0.031647723 0.009759461 -0.027888305
-0.09293285 0.14248174 -0.07121875 -0.10935654 0.13143763 0.12945801 -0.082540885 -0.10170461
0.100298226 -0.0030915148 -0.1350581 0.032965396 -0.08720993 0.06378594 -0.028548986 -0.08339131
-0.04069092 0.06560558 -0.18974811 0.21170022 0.033911165 -0.057352778 0.050934643 -0.099415585
-0.12189589 0.015135635 -0.15743361 0.11668145 -0.0024281556 -0.041168347 -0.10374943 0.056815095
0.16303892 -0.0493184 -0.080081046 -0.10424966 -0.03918094 0.044827502 0.06253573 0.08167342

model.2.weight f4 [64, 64]
00000000: 2bea 89be e11d a6bd f3ac c53e 1b8b 8e3d
00000010: 8b5b b43d 758a 8d3d c20d 443d e8df b43d
00000020: b3ca cb3d 2264 25be 4025 33be 3b5d 8c3d
00000030: 9f85 1abd d0c1 ba3d c694 5c3e cdc3 48be
00000040: 34ba cbbd 310f 37be cdcc 09bd 05dc 85be
00000050: 527e b9bd e262 34be 8eaa 523e 3de4 20be
00000060: 0b8e adbe a5d9 0dbe cd80 833e 43bb 3f3e
00000070: ea29 1c3e 5e8b 3c3c d0fc 7e3e 5c19 11bd
00000080: 067b 6d3e f23c 21bd c1c7 5e3d 54fe 5fbd
00000090: 8b39 0e3d 7a96 4fbc 2899 e6bd a7cd 67bc
000000a0: da34 4ebd 6739 043e 4ac7 b93e dc41 28bd
000000b0: 76a2 9c3d b3c6 a63c 7b5d 05bf 61f5 47bd
000000c0: 3f48 c9bd 6d09 873d bb7e 59be 55e0 e2bc
000000d0: 388b 97bc 24a7 69bd 3e3a 353e c5ff 6bbe
000000e0: 4a5c 01be 71e5 773e 7b72 3b3c 73d1 aa3c
000000f0: 1b5d 7f3d 2ac8 5c3d a904 03bc b8f5 52be
00000100: 07f4 e5bd e0ed a73d 01e8 9dbb 94b2 043e
00000110: 56a5 783b d784 9d3e 3c93 c7be 7c55 113e
00000120: 1ee7 cbbd 6692 65be 9726 71bc e665 7f3e
00000130: 00cf 283c 5bc8 11bd f0ae bc3c 84a2 0fbd
00000140: 54c6 463d 7d3b 8d3d c790 263e c78b 3cbe
00000150: a7e3 9d3c c000 133e f286 293e 951f 123e
00000160: 7ec7 1b3e 8c27 98bc 7bac 29be abff 863c
00000170: ef62 b03c 288d a8bd f64b 2b3e 1c6a 99be
00000180: 5f74 b7bd 3b46 7abc 68f7 93bd 4060 613d
00000190: b212 103e 35b7 a1bd 4fca 1dbd 67dd 8d3d
000001a0: 5788 f7bb 95a8 5dbe 480a afbd fd70 cbbd
000001b0: 77b5 33be 55de 0bbe cb10 e9bd cd74 91bd
000001c0: b1b8 02bd 5484 cfbe 6309 6dbe 6de5 21bc
000001d0: 0a63 10be c9c5 9c3e bcdd ae3b be9e 53bd
000001e0: ed75 0f3e 3715 4dbe 0729 b23e b672 af3d
000001f0: c835 2ebe 190b 8cbe 7e49 093e a861 27bd
00000200: e215 3bbe ff1c cebd 4f14 4d3e 5fd6 77be
00000210: 196a b6ba 389a 77be 1ac7 cfbe dff0 933e
00000220: 99db 2cbe 08f0 e0bd 2e8c 87bb b5e2 05be
00000230: 2710 9b3d 0bd9 303e 3a99 383e 8591 bebc
00000240: 0d61 3fbe 3083 d4bd 7b6f c6bc 7555 85bc
00000250: 6642 e6bd b711 143e aeea 2bbe abe1 293d
00000260: 471e 21be b516 a5bd 271c a43e afc9 55bc
00000270: 506d 58be 5e01 7ebd c5e5 1f3d f520 9c3d
00000280: 6ce8 acbd 3a0f d4bd 23f5 18bd 6ad8 9a3d
00000290: 2e25 a73d 12bc 0b3e 3c6d 873d 8bb3 893c
000002a0: 6630 9d3e 8d2f 88bd ae80 cabe a8b2 54be
000002b0: 6442 44bc bd1a 053e 4146 8abd b966 97be
000002c0: 1b7b 833d 7222 9bbe b52f 98bd 8d50 efbb
000002d0: e3d4 e3be 8941 acbd df83 003d 036c cc3d
000002e0: a1be c2bd 36a0 bebd c51c 223d ee6e 0ebe
000002f0: 671b f6bc 4740 0c3e 532d abbe 3867 d1be
00000300: dbf3 f1bd 72a8 8bbe 260b c13e a5e1 05be
00000310: 8e4c 17be 26d1 623c 3262 fdbe 61cc 283e
00000320: 671d acbe 1158 e5bb c893 5fbd ab4a 203e
00000330: 4f6e 4e3c 4c78 063e 257b 8ebe 50d4 0fbf
00000340: cdf2 e63c 416c 74be f914 25be 0c92 5f3e
00000350: db89 9d3d 74bb c6be 9df2 78be a136 4c3e
00000360: 88dc e93d ff43 2cbd 60a4 803e 2afb d6bd
00000370: 143f 123d 7120 10be 0f19 f6bd c0c0 3e3e
00000380: 46e5 483d d5f0 f93d 90e5 9c3d 4cc7 79be
00000390: 4707 62bd d939 b7bc 9f3f 573e dce0 7cbe
000003a0: 4b28 a73d 4c50 263e cb39 dd3d 2e03 a7bd
000003b0: c928 abbd e924 8abc 8a2e 76be a867 85be
000003c0: 4f37 b3be d20c afbd 96c0 adbe 8fbc 9e3d
000003d0: 3bb7 953e 209c 81be d114 2dbe d05b b6bd
000003e0: f950 3dbe 53cf 5bbe fd8e f0bd 9979 0cbe
000003f0: 70a3 c1be 0b04 a7bc af45 b8bd 89df 5cbe
-0.26936468 -0.08111168 0.38608512 0.06960126 0.08806523 0.06911174 0.047864683 0.08831769
0.09950771 -0.16151479 -0.17494678 0.0685372 -0.037725087 0.09118998 0.21541128 -0.19605942
-0.09947625 -0.17876889 -0.03364258 -0.26144424 -0.09057297 -0.17615846 0.20572874 -0.15712066
-0.33897433 -0.13852556 0.25684205 0.18723778 0.15250364 0.011507837 0.24901128 -0.035424575
0.23191461 -0.039364763 0.05438972 -0.054685906 0.034722846 -0.012670154 -0.11259681 -0.014148152
-0.050343372 0.12912522 0.36284858 -0.041078433 0.076481745 0.020358419 -0.52095765 -0.048817996
-0.09828233 0.06593595 -0.2123975 -0.02769486 -0.018499002 -0.057044163 0.17697999 -0.23046787
-0.12632862 0.24208619 0.0114408685 0.020851826 0.06234465 0.05390183 -0.007996717 -0.20601547
-0.11228185 0.08199668 -0.004818917 0.12958747 0.0037940345 0.3076541 -0.38979518 0.14192766
-0.099561915 -0.22419128 -0.014718673 0.24941215 0.010303259 -0.035591464 0.023032635 -0.035067096
0.048528984 0.06896112 0.16266166 -0.18412696 0.019273592 0.14355755 0.16555384 0.1426986
0.15212819 -0.018573545 -0.16569702 0.016479334 0.02153155 -0.082300484 0.16728196 -0.29963768
-0.08957743 -0.015275533 -0.07224923 0.05502343 0.14069632 -0.07896272 -0.038523015 0.06926995
-0.007554095 -0.2164634 -0.08546883 -0.0993366 -0.17549692 -0.13659032 -0.11380156 -0.07102356
-0.031914417 -0.40530646 -0.23148112 -0.0098813595 -0.1410028 0.30619648 0.0053364914 -0.05166506
0.14009829 -0.20027624 0.34796926 0.08566801 -0.17012703 -0.27352217 0.13406941 -0.040864617
-0.18270066 -0.10064124 0.20027278 -0.2420287 -0.0013917118 -0.24179924 -0.4058159 0.28894708
-0.16880645 -0.10983282 -0.004136584 -0.13074763 0.0757144 0.17270295 0.18027201 -0.023262748
-0.18689366 -0.103765845 -0.02422308 -0.0162761 -0.11243133 0.14459883 -0.16788742 0.04147498
-0.15734206 -0.08060972 0.3205273 -0.013048573 -0.2113545 -0.062013023 0.039037485 0.076234736
-0.084427685 -0.10354467 -0.037343156 0.07560809 0.08161388 0.13645962 0.06612632 0.016809246
0.30700988 -0.066496946 -0.395513 -0.20771277 -0.011978719 0.12998481 -0.06751681 -0.2957056
0.06419965 -0.30299717 -0.074309744 -0.0073033036 -0.44498357 -0.08410937 0.031375762 0.09981539
-0.09509016 -0.093079016 0.039578218 -0.13909504 -0.030042363 0.13696395 -0.33433017 -0.40899062
-0.1181409 -0.2727695 0.37703818 -0.13074358 -0.14775297 0.01384381 -0.4948898 0.16484214
-0.33616182 -0.0069990237 -0.054584295 0.15653484 0.012599542 0.13131827 -0.27828327 -0.5618334
0.028191948 -0.2386942 -0.16121282 0.21833056 0.076923095 -0.3881489 -0.243113 0.19942714
0.11419016 -0.042057034 0.25125408 -0.104971245 0.035704687 -0.14074875 -0.12016498 0.18628216
0.049046777 0.12204138 0.07660973 -0.24392432 -0.05518272 -0.022366451 0.21020363 -0.24695152
0.08161982 0.16241568 0.10802039 -0.08154903 -0.083573885 -0.016863303 -0.2404119 -0.26055646
-0.35003135 -0.08547367 -0.33935994 0.077508084 0.29241356 -0.25314426 -0.16902472 -0.089042306
-0.1848792 -0.21465807 -0.11746023 -0.13718261 -0.37820005 -0.02038767 -0.08997666 -0.21569647

model.2.bias f4 [64]
00000000: 1f1d 80bc 52d0 13be 50d3 783d 1607 a23d
00000010: ec5d 9f3d db3c e5bd 8dd8 aabd d01a 813d
00000020: 6deb 0b3e 9686 bf3e 768b 63bd 92f5 4c3e
00000030: 2284 063e fd2c 6dbc f8ae ccbd c8ab a7bd
00000040: cc86 283b bc29 bc3a b38c 3c3b 65c7 083e
00000050: bd96 6ebd 333b b73e 0455 10be 0179 bebd
00000060: 95b9 0abe 72b1 4ebd 09eb 693d 22f7 65bd
00000070: 8914 fe3d 2168 883e 09ba bb3d 9504 b2bd
00000080: 6401 23bc 090e 2c3e 2f1a 74bb 8d97 f5bd
00000090: 202d f0bd bb4b 19be 7e7a 363d cc35 533c
000000a0: 0c36 dcbd 6247 c33e 5892 ac3d 3325 a2bd
000000b0: 238e 2cbd 9cbe d0bd 49b9 26be c9fd f2bd
000000c0: 6d65 363b 6fc5 13be deae 20be 2f2d cc3e
000000d0: 0076 98bd a9f0 14be 8711 29bc 5581 94bd
000000e0: a82a 1fbe 0762 04be a639 39bd ae46 84bd
000000f0: 9971 763d 512f 6b3e 048b 5f3d 11ab 16be
-0.015638886 -0.14434937 0.0607484 0.07911508 0.07781586 -0.11193248 -0.08342085 0.06303942
0.13664027 0.37407368 -0.055552922 0.20015553 0.13136342 -0.014476058 -0.0999431 -0.081870615
0.002571511 0.00143557 0.0028770387 0.13357313 -0.058249224 0.35787353 -0.14094931 -0.093004234
-0.13547356 -0.050462194 0.057108913 -0.056143887 0.124062605 0.26641944 0.09166343 -0.0869228
-0.009949062 0.16802229 -0.0037247052 -0.11991797 -0.11727357 -0.14970295 0.04455041 0.012891244
-0.10752496 0.38140398 0.0842635 -0.079172514 -0.04212774 -0.10192606 -0.16281618 -0.11864812
0.002783145 -0.14430784 -0.15691707 0.39878222 -0.07444382 -0.1454493 -0.01031912 -0.072512306
-0.15543616 -0.1292802 -0.045220993 -0.064587936 0.06016693 0.22967269 0.054575935 -0.14713694

model.4.weight f4 [4, 64]
00000000: 320c 1cbe 3e30 f13c 0589 713e 4000 06bf
00000010: 184e b43e 672c 293e c38b 093e 381e bebe
00000020: 475e 813e f51a d93d c68a 1c3e fd44 443e
00000030: b464 d83d edda 2738 3050 1cbd 22e7 35be
00000040: e9c5 2e3e 7313 75bd 9bd6 863e 8f2c 8b3e
00000050: c5cc 96be 6137 443e dbef 0f3d fa5f d4be
00000060: 3a16 26be 6d2b 2cbf 7613 8dbe e15e 993e
00000070: 6355 7c3d 0e0c 003e bd2a 17bf 6307 3d3e
00000080: c53f 963e 3b67 3d3e 3dd6 d33e b06e 243f
00000090: 1588 54bc e9d8 0fbf b4a1 153e b9a1 8a3e
000000a0: 7d41 393d 7a99 2f3e c936 2b3e f9ae fdbc
000000b0: 8bba 73be 8fe0 52bd a8df b63d 81fc 71bc
000000c0: e1e4 e63e 71dd ad3e 6fa1 88be 8bde 203e
000000d0: 5a60 9ebd f567 7abe be05 913e 8e1f 8f3e
000000e0: 58f5 62bd fcbd 69bd 0404 ff3d 6e03 2c3d
000000f0: 0aa6 5ebe 777b fd3d 9038 b73e 1a89 473d
00000100: 7177 e53d 2ba2 a43c 415c d23e dc90 d7be
00000110: 0bfc 8d3e 4a94 903e c32a 323e 7c35 f73d
00000120: 8f54 473e 81f3 fc3d b873 b33e bbe8 353e
00000130: 6695 c63d 03c7 6f3e 3a5e 61bc 4177 7fbe
00000140: 6199 973e 52dc f1bd 276a 103e 6f52 1a3e
00000150: ca5e c0bd ddd0 533e 8280 81bc a1b6 d5be
00000160: faaf 22be fc22 82be 6cf3 bfbd a424 c83e
00000170: a41d 293e 1c03 483e 5624 c93e 3e6e 4c3e
00000180: 5978 853e d41d ff3c ce12 d03e 0dfd ef3e
00000190: 4310 8b3d fb8a a7be 3034 1f3e 0b42 393e
000001a0: e35f 30be 3560 363e 7125 1a3e 4aa8 afbd
000001b0: 8887 0fbf 617d f13c 3684 e83d c566 86bc
000001c0: 4319 323e 6103 303e 169b b4bd 2d6d b33d
000001d0: 527f fc3e bd49 b9bd 12b6 383f 3e27 823e
000001e0: b306 22be 9ed7 a5bd 2155 263d 4f60 bcbd
000001f0: e315 18be 87d5 ba3d 5785 e93d 89ff 9f3c
00000200: 07b3 04bf 9ba5 1e3e 9d60 8a3e ee9a 773e
00000210: 32f0 d83e f78f 1abd 1520 8b3e 8166 d13e
00000220: 0495 1a3e 270e e23d f038 f4bd 7f75 863e
00000230: eae8 173e 208a aa3e 447e 8abd 614f babb
00000240: a1a4 da3d 16e6 a5be ea5d d8bd 6213 bd3d
00000250: 0e6f 58be 043b 543e 7ee4 93be 8721 e03e
00000260: 4147 dc3d 8077 97be 0349 04be 2ba3 3e3c
00000270: 43a5 253e 1169 7f3e 9071 94bd 95d3 253d
00000280: 7676 54bd a533 1c3d 1b2f f93e d070 173f
00000290: 2a9b 733e 15da a1be aac7 8b3d d8f3 2d3e
000002a0: e9cc 213f 024f 0d3e d5a2 a83e 7818 30bd
000002b0: 610a c3bd 3f6c ffbe cb97 8a3e 3746 b73e
000002c0: 8585 043e 6f78 623e 83e7 2cbe c1fa 683e
000002d0: 5175 90be 2f35 02bc 4101 3c3f 00ed a13e
000002e0: 9e4d 1fbd 5d76 92bd bffe 273d 567b 84be
000002f0: dbe2 72be a79a 233e b5eb 853e 9aeb 15bd
00000300: 549f 7f3e f094 c33e d790 4f3e b43a 96be
00000310: 2056 863e 593d 5a3e 7cba 013d 8db7 ad3d
00000320: bd9c 82bb 7213 223e cc8d 253f 871f ab3d
00000330: f340 fc3d a58f 10be c2f9 323d e9f1 7fbe
00000340: 7664 b43e 6a55 83bd 6b33 de3d 61eb e83d
00000350: 381d a63c 8db3 783e 308b 8bbe fa52 81be
00000360: c94a c63d 57ee 1bbf b2bf f5bd c00b e43e
00000370: 03fc 493e 893a db3d dafe b6be 53af 703e
00000380: ebf5 e13c 55f2 e53d 3ade 613e 61b9 1b3f
00000390: 170d 5dbe f295 a2be 86bd be3e 24fe 2a3d
000003a0: d972 05bf 2c2e fc3d 2dcb ae3d 9d34 14be
000003b0: daa3 963d 1cad dfbd 981a 0f3e 0b96 553c
000003c0: 6aef 093f 1c1d 903e 1773 383e 6ff7 103e
000003d0: c150 debe 684e 1cbe 3ee0 cdbc f370 9a3e
000003e0: b161 243c 5d91 1cbe b25d 82be f533 22be
000003f0: b11f 6abd 7aba 343e 6ad4 debd 479b 973d
-0.15239027 0.029441949 0.23587425 -0.5234413 0.3521583 0.16520844 0.13432221 -0.3713243
0.2526724 0.10600845 0.15287313 0.19166942 0.105660826 4.0019793e-05 -0.03816241 -0.17763951
0.17067684 -0.059833 0.26335606 0.27182433 -0.29453102 0.1916175 0.035140853 -0.41479474
-0.16219416 -0.6725376 -0.2755391 0.299552 0.06160487 0.12504598 -0.5904959 0.18459849
0.29345527 0.1849641 0.41374388 0.64231396 -0.012971898 -0.56190354 0.14612466 0.2707651
0.04522847 0.1714839 0.16720118 -0.030967223 -0.23801629 -0.051483687 0.08929378 -0.014769674
0.45096496 0.3395801 -0.26685664 0.15709893 -0.07733221 -0.24453719 0.28324693 0.27953762
-0.05540976 -0.05706595 0.12451938 0.04199546 -0.21743026 0.12377065 0.3578534 0.048714735
0.11204422 0.020096859 0.4108601 -0.42102706 0.27731356 0.28238136 0.17399125 0.12070748
0.1946585 0.12351132 0.35049224 0.17764561 0.09696464 0.2341576 -0.0137553755 -0.24947836
0.29609206 -0.11809601 0.14102994 0.15070508 -0.093930796 0.20685144 -0.015808348 -0.41740897
-0.15887442 -0.25417316 -0.09372601 0.39090455 0.16515213 0.19532436 0.39285535 0.19963929
0.2606838 0.031142153 0.40639347 0.4687275 0.06790211 -0.3272322 0.15547252 0.180916
-0.17224078 0.17810138 0.15053345 -0.085770205 -0.5606618 0.02947873 0.11353342 -0.016406426
0.17392449 0.17188789 -0.08818643 0.08761058 0.49315888 -0.090472676 0.7215282 0.25420564
-0.15822868 -0.08097766 0.04060853 -0.09198057 -0.14852099 0.09122758 0.11402386 0.019531028
-0.51835674 0.15492861 0.27026835 0.24180195 0.42370754 -0.03773495 0.27172914 0.40898517
0.15095907 0.110378556 -0.119249225 0.26261517 0.14834943 0.33308506 -0.067623645 -0.0056857322
0.10675932 -0.32402104 -0.10564788 0.092322126 -0.21136114 0.20725638 -0.28885263 0.4377558
0.10755778 -0.2958336 -0.12918477 0.011635582 0.16176324 0.24942423 -0.07248223 0.040484983
-0.051870786 0.03813519 0.4866875 0.59156513 0.23789659 -0.31611696 0.06825192 0.1698755
0.63203293 0.1379967 0.3293673 -0.042992085 -0.09523464 -0.49887273 0.27068934 0.35795757
0.12941559 0.22116254 -0.1688519 0.22751905 -0.28214505 -0.00794725 0.73439413 0.3162613
-0.03889238 -0.07151482 0.04101443 -0.25875348 -0.23719351 0.15976964 0.26156393 -0.03660164
0.24963123 0.38199568 0.20270096 -0.29341662 0.26237583 0.21312465 0.031671986 0.08482275
-0.00398597 0.1582773 0.6466949 0.08355623 0.123170756 -0.14117296 0.04369522 -0.24994625
0.35232896 -0.06412776 0.10849651 0.1137302 0.020277604 0.24287243 -0.2725463 -0.2525862
0.09682233 -0.6091055 -0.119994536 0.44540215 0.19725041 0.10704524 -0.3574131 0.23504381
0.027583083 0.11227862 0.22057429 0.6082974 -0.21587025 -0.31755024 0.3725397 0.041746274
-0.5212837 0.12313494 0.085348465 -0.14473195 0.07355471 -0.1092169 0.13974988 0.013036261
0.5388094 0.2814721 0.18012653 0.14156888 -0.43420985 -0.15264285 -0.025131341 0.30164298
0.010033057 -0.15289827 -0.2546211 -0.15840133 -0.05715913 0.1764926 -0.108803585 0.07402664

model.4.bias f4 [4]
00000000: 4ab1 5d3e af94 5e3e daf9 193e 9b16 3b3e
0.21649662 0.21736406 0.15036717 0.18270342
