checkpoint.pth (torch, 29399 bytes, 6 tensors)

model.0.weight f4 [64, 37]
000000 79 c1 31 3d 36 2b 77 3d df 3c e7 3c 33 c2 e5 bd
       0.0433974 0.060343944 0.028227268 -0.11218681
000010 61 1e ee bd 76 f6 91 3c b5 c4 22 3e da 0b 2c 3e
       -0.11626888 0.017817717 0.1589535 0.16801396
000020 26 d2 4f 3e 25 84 e7 3d a1 ed e6 bc 34 8e 90 ba
       0.20295009 0.113045014 -0.028189482 -0.0011028708
000030 64 c1 1a be 11 a8 05 3e 0e f3 b8 3e 03 c9 f0 3c
       -0.15112835 0.13052393 0.36122936 0.029392725
000040 7f 11 bb 3d 4a ad 55 3d 35 ba 6e 3e 0f ec 83 3e
       0.091341965 0.052167214 0.2331322 0.25766036
000050 0b d5 8d 3e 3f dd 71 bd 20 d5 88 3d 8f 79 e9 bc
       0.277016 -0.059048887 0.06681275 -0.028500346
000060 9a db 03 bf 76 9a 05 bc b4 a6 7d 3d c2 05 94 3d
       -0.5150696 -0.008154502 0.06192656 0.07227661
000070 11 03 23 3c 6c d1 27 be ea 60 11 bc 31 3f 86 3e
       0.009949462 -0.16388482 -0.008873204 0.26220086
000080 ef 91 d2 bc 5e af 85 bd 3a 2f 79 be 3f 89 9d bb
       -0.025704352 -0.06527589 -0.24334422 -0.004807621
000090 47 38 d3 bc 46 0d bd 3e 9d dc 15 3d ad 18 d1 bc
       -0.025783671 0.3692419 0.036587346 -0.025524462
0000a0 f7 77 60 bd 3e ce b5 be 2a cc 92 3d 51 48 d1 bd
       -0.054801907 -0.35508913 0.071678475 -0.102188714
0000b0 bb 35 4e bd bd a4 2e bd 4e 2e a2 bb 8d 94 05 bd
       -0.05034421 -0.042637575 -0.0049493676 -0.032612372
0000c0 ec 66 87 3d 6c a2 fb 3d 1f 77 2f 3e 1b 8b 12 3e
       0.06611428 0.12286839 0.17135285 0.14310877
0000d0 95 37 07 3e 29 60 c4 ba 94 bc 16 3d ce 89 da 3d
       0.13204797 -0.0014982271 0.036800936 0.106708154
0000e0 20 72 4b 3d e9 37 08 bd 14 7a ad bc c9 bb 4b bd
       0.049669385 -0.033256445 -0.021176375 -0.049739633
0000f0 51 4d c3 bd 3e 59 d8 3c 03 a4 b7 3d 19 e7 28 3c
       -0.09536231 0.026409741 0.0896683 0.010309004
000100 f1 9c 52 3d 33 55 8e 3c e1 a9 49 3d 4c 28 90 3e
       0.051419202 0.01737461 0.049234275 0.28155744
000110 ae 43 a9 3d b9 bc 95 bd 65 1d 65 be d9 b8 63 bf
       0.08264862 -0.073113866 -0.22374494 -0.8895393
000120 29 45 c6 3d b9 25 40 3c 53 50 4a 3e a6 7c 14 be
       0.0968116 0.011727744 0.19757204 -0.14500675
000130 b9 ab 35 3e 49 28 6f be c8 3f cf be 5d 3c 24 bf
       0.17741288 -0.23355211 -0.4047835 -0.6415461
000140 e2 9e af 3e 59 a4 9c 3e e1 04 91 be 0f 1c b9 be
       0.34300905 0.30594137 -0.28324035 -0.3615422
000150 77 4b 6c 3e dc 0a 2b 3d 49 fb 18 bd d6 03 b5 bd
       0.23075663 0.041758403 -0.03734902 -0.08838622
000160 99 7e e3 bd 8d 1e 9d be c2 62 73 be 2d 2b a2 3e
       -0.11108131 -0.3068737 -0.23768142 0.31673566
000170 e5 d3 c3 3c 18 be cc bf 08 14 73 ba 18 1c 25 bd
       0.02390475 -1.5995512 -0.0009272699 -0.040309995
000180 f2 c0 9d 3d c4 97 d0 bd b9 32 4d bd 67 99 09 bf
       0.07702817 -0.10185197 -0.0500972 -0.537497
000190 6d ba 11 3e 03 1c c0 3e 4b 1c 54 be 2b b5 0f c0
       0.14231272 0.3752137 -0.20713918 -2.2454326
0001a0 da 7a 43 be 0c b5 2c be 74 24 72 3c 91 a0 bc be
       -0.19089833 -0.16865939 0.014779199 -0.36841252
0001b0 b6 c9 f3 bb 6b e4 90 3d 79 f1 15 3c c1 0e 00 3e
       -0.0074398173 0.07074817 0.00915181 0.12505628
0001c0 9e f7 8e 3d 06 bd 9e 3d fa 67 13 3e ac a8 98 bc
       0.06980823 0.07750897 0.14395133 -0.018635117
0001d0 f1 40 a9 3d 5f 2d cc bc e4 b6 53 3c 6a 41 0f 3e
       0.0826434 -0.024923978 0.0129220225 0.13989797
0001e0 56 d7 35 3d 1b e9 cf 3c 50 12 27 3d c7 f1 11 3d
       0.044394813 0.025379708 0.04078895 0.035630967
0001f0 00 53 67 bc 56 29 89 bc be 13 f0 bc a8 7b 6f 3c
       -0.01411891 -0.016743343 -0.029306289 0.014616884
000200 f7 1e a3 3a 25 01 c6 bd aa 67 0a bd c5 e8 cf 3e
       0.0012445141 -0.09668187 -0.033790268 0.40607277
000210 e2 0e 0e bf 46 ac da be bf 7f ad be b4 eb 07 c0
       -0.5549146 -0.4270956 -0.33886525 -2.1237612
000220 5f 2d b2 3d 1d 18 ab 3d 18 0c 47 3d 6b 61 f5 3d
       0.0870006 0.083542086 0.048595518 0.11981472
000230 8f 37 31 3d 4a 54 98 3d de f1 02 3e 0b e1 95 3d
       0.043265875 0.07437952 0.12787578 0.07318314
000240 d2 d8 39 3d c0 e3 f5 bd af 76 49 3b ea f4 0f 3c
       0.04537279 -0.120063305 0.0030740907 0.008786419
000250 c8 d2 a1 bd ff 42 3e be bc 82 fa bd bf 7f 6b be
       -0.079015315 -0.18580244 -0.12231967 -0.2299795
000260 f5 9e c5 bd c5 c5 d6 3d b4 b3 9f bc 1a 1b 94 be
       -0.09649459 0.1048694 -0.019494869 -0.28926927
000270 80 f0 33 3e e3 2b e0 3b 45 4f 83 3d 01 b8 3e be
       0.17572212 0.006841169 0.06411604 -0.1862488
000280 0c 21 d1 bd f9 da 6e bc 42 f4 91 3c 3c 68 86 bd
       -0.10211381 -0.014578574 0.017816667 -0.0656285
000290 10 34 18 be e4 ba 18 bd ba 36 10 bd 19 12 a5 3e
       -0.1486361 -0.037287608 -0.03520844 0.3224037
0002a0 b1 7b 0a be 9f b8 e4 bc b3 db 4f 3c 6c 67 90 3d
       -0.13523747 -0.027920065 0.012686658 0.07050976
0002b0 58 b0 82 3e 36 cb 64 bd 73 e4 89 bb 01 9b ab ba
       0.25525165 -0.05585786 -0.0042081415 -0.0013092459
0002c0 4c ef b8 3d 22 4b 70 3d 8c 76 a2 3d b2 f0 b2 ba
       0.09030017 0.058665402 0.07932767 -0.0013652055
0002d0 7f f4 b6 bd 2a a6 4c 3e 3d ba 30 3f 02 84 0c 3c
       -0.08933353 0.19985262 0.6903418 0.008576395
0002e0 dc b9 82 3c df d8 ce bc 2e 6e 43 bd 45 33 cb 3b
       0.015957765 -0.025249897 -0.047712497 0.00620118
0002f0 b1 d8 dc 3b c3 a4 0e bc ad 1d ae 3e 91 47 cc be
       0.006739699 -0.008706274 0.34007016 -0.3989835
000300 20 c8 f6 be 94 78 22 bf 75 38 14 c0 87 5d 92 3b
       -0.48199558 -0.6346524 -2.3159459 0.0044667157
000310 3c d7 cf bd ed 49 2b bd da a6 91 3c 85 ea b9 3d
       -0.101484746 -0.041818548 0.017779756 0.09077934
000320 4f dc 5b bd e9 a7 22 bd d9 8d 90 3d 2b aa c4 3d
       -0.0536769 -0.039710913 0.07058305 0.096027695
000330 0f 92 21 3e 31 41 0c 3e ba 5b db 3d 54 f9 52 3d
       0.15778373 0.13696744 0.10710855 0.05150731
000340 b1 40 30 3d 25 b0 cf bb fd c6 42 bd 41 0b f4 3d
       0.043030445 -0.0063381367 -0.04755305 0.11916209
000350 b0 e3 fb 3d e3 ee e1 3d 34 f7 92 3d 1f 59 af bd
       0.12299287 0.11031892 0.071760565 -0.085619204
000360 11 f2 fd 3c 24 01 ea ba 22 21 c3 3d 37 e8 d4 3d
       0.030999215 -0.0017853123 0.09527804 0.10395854
000370 76 d1 39 3d a1 16 34 3b 16 97 c3 be 23 be cb 3d
       0.045365773 0.0027479308 -0.38201207 0.09948375
000380 5d 64 20 3d fa 8a 04 bc 52 82 3b bd 5e 5d 5a be
       0.039158214 -0.008089775 -0.04577858 -0.2132468
000390 1b 62 6e be f5 37 a9 bc 2f 20 0b bd 99 2b fb 3d
       -0.23279612 -0.020656565 -0.03396624 0.12264175
0003a0 7d 32 2f 3c 8b 13 13 3e 61 d0 a9 bd 78 33 40 bd
       0.01069319 0.14362924 -0.08291698 -0.046924084
0003b0 2d 48 a9 3e ac 5e a0 be 3d 8a 33 ba 23 31 07 3e
       0.33062878 -0.3132223 -0.0006848907 0.13202338
0003c0 a3 9a 4a 3d c9 5c 05 3b 55 9f 2d bd 58 ad e4 bb
       0.04946388 0.0020349494 -0.04238828 -0.006978672
0003d0 2e 86 3e bd fc b0 14 be 52 4f 96 3e cc 83 50 bd
       -0.046514682 -0.14520639 0.29357392 -0.05090694
0003e0 db 5f 30 3d 19 52 1b bb 3e 8b ac be 68 17 06 3e
       0.043060165 -0.0023700057 -0.33699983 0.13094866
0003f0 2f c8 1e 3e ba 94 13 bf f2 e1 ec 3d 7b 7a 1b be
       0.15506051 -0.57648814 0.11566533 -0.15183441

model.0.bias f4 [64]
000000 98 ef 66 3e 6f 66 14 3d 76 46 06 bd 41 68 2a 3c
       0.22552335 0.0362305 -0.03278204 0.010400833
000010 4c ee de 3d fe 19 0b bd 63 78 15 be 4d e3 d4 3d
       0.10885295 -0.033960335 -0.14596705 0.10394917
000020 0e 67 ac bc a7 a3 50 be 54 e8 b9 3d 39 f5 69 3e
       -0.021045234 -0.20374928 0.09077516 0.22847451
000030 34 bf 34 3e b5 93 8f 3d 58 ba de bc 67 9b 9c bb
       0.17651063 0.07010595 -0.027188465 -0.0047792676
000040 c2 4f 07 3e 4a eb e9 bb 71 7b d9 bd f7 a6 57 be
       0.13214019 -0.0071386443 -0.10619248 -0.21059786
000050 eb 91 96 bd 3e 54 33 3d f8 2d fb b8 f5 64 c1 bc
       -0.073520504 0.04378151 -0.00011977175 -0.02360771
000060 70 23 a6 bd 81 ce 10 3e 8c 43 6f bd f6 6b bf bd
       -0.08112228 0.14141275 -0.058414027 -0.09346764
000070 5c 95 fd 3d b1 c4 08 3e 19 e8 c1 bd 53 f6 e3 bd
       0.12382004 0.13356282 -0.09468097 -0.11130967
000080 46 71 c8 3d cb c8 bb bc f6 46 27 be c9 e4 65 3d
       0.0978723 -0.022922894 -0.16335663 0.05612639
000090 42 c5 c4 bd 61 7a 9b 3d 0b 93 45 bd 1a 8c c9 bd
       -0.096079364 0.07591701 -0.048235934 -0.098411754
0000a0 50 0e 2b bd 86 04 8d 3d 22 6c 7c be 0a 05 8e 3e
       -0.041761696 0.068856284 -0.24650624 0.2773822
0000b0 64 4e 17 3d 43 af 57 bd ed 7c 1d 3d 01 fb 13 be
       0.036939994 -0.052657377 0.038449217 -0.14451219
0000c0 e0 91 10 be e8 65 d9 3c 06 74 1c be 24 bf ec 3d
       -0.14118147 0.02653785 -0.15278634 0.11559895
0000d0 e9 48 f0 bb 7e fe 3a bd da 57 d5 bd 1f 16 04 3d
       -0.0073329103 -0.04565286 -0.10417147 0.03224766
0000e0 e0 4c 5c 3e c6 35 4b bd 29 6b 95 bd 94 21 fc bd
       0.215137 -0.04961183 -0.0729583 -0.12311092
0000f0 7a c7 98 bd b4 3b 86 3d ec e6 09 3d 5b 32 70 3d
       -0.07459922 0.06554356 0.03366749 0.058641773

model.2.weight f4 [64, 64]
000000 ae bc cc be 2a ae 63 bd 81 c7 ce 3e 07 f0 13 3e
       -0.399877 -0.055586018 0.40386584 0.14447032
000010 af 97 92 3d e5 40 13 3e 25 8d 01 3e 66 5c 15 3e
       0.071578376 0.14380224 0.12651499 0.14586028
000020 be 39 09 3d a8 2a 97 bd 07 6b 51 bd f3 8f b8 3d
       0.033502333 -0.07381183 -0.05112746 0.09011831
000030 8b 7b df bc 75 a4 07 3c fb 56 85 3e e6 79 90 be
       -0.02728059 0.008278956 0.26042923 -0.28218
000040 d9 da 93 bd 5e 31 19 be fc 2a 98 3d 7d ff 80 be
       -0.07219476 -0.14960238 0.074300736 -0.25194922
000050 c3 5f b3 bd f5 26 6d be 02 a3 68 3e 03 63 5a be
       -0.087584995 -0.23159392 0.22718433 -0.21326832
000060 1a 8a d7 be 35 82 5e be 2c 06 86 3e de 49 30 3e
       -0.4209755 -0.21729358 0.26176584 0.17215678
000070 23 91 dc 3d c1 55 19 bc 91 57 ac 3e 0e a1 34 3d
       0.1076987 -0.009358824 0.33660558 0.044098906
000080 83 36 80 3e 4c 20 03 bb 7f a1 84 3c 53 1d ff bc
       0.2504159 -0.0020008264 0.016190289 -0.031141913
000090 f7 71 44 3c fc d8 83 bd 1f 43 88 bd aa 75 e5 bd
       0.011990062 -0.06437871 -0.06653427 -0.11204083
0000a0 da 3d 03 ba 3b 1e f3 3d 4e b0 d7 3e c9 af 97 bd
       -0.000500647 0.118710004 0.42126697 -0.07406575
0000b0 99 43 2d 3a 9a 3c 64 bc 05 3e 30 bf 46 a6 f9 bc
       0.0006609499 -0.013930464 -0.68844634 -0.030474793
0000c0 c1 23 47 be b3 a1 fb bd 43 f8 4f be ae 50 c0 bc
       -0.19447233 -0.12286701 -0.20309548 -0.023475971
0000d0 e5 5a c6 bd 4d a4 fb 3c 1c a8 57 3e f3 97 9a be
       -0.096853055 0.030717993 0.21060222 -0.30194053
0000e0 f6 d6 7c bd 19 3e 88 3e ba 38 9f 3d dd 55 42 3e
       -0.06172844 0.26609877 0.077744916 0.18978067
0000f0 b1 58 38 3d 4f 99 ce bd e1 08 19 3e 6b f6 69 be
       0.045006458 -0.10087835 0.14944793 -0.22847907
000100 60 bb b6 bd 0c 8f 24 3c b3 d0 0d bc b8 cb 0f 3e
       -0.08922458 0.010043871 -0.008655715 0.14042556
000110 bd 01 e4 bc 85 9e 9a 3e 65 3a 1a be 66 48 18 3e
       -0.02783286 0.30199066 -0.15061338 0.14871368
000120 f7 8a 73 bd 0a 65 e7 be e1 dc 6d bc ce 55 93 3e
       -0.0594587 -0.45194274 -0.014517994 0.287764
000130 e5 ad 8e bd 39 fb 98 3b cc af cf bd 4c 9c 2f be
       -0.069667615 0.00466862 -0.101409525 -0.17149466
000140 cd 88 3b 3d 49 fa 08 3d 42 3d ca 3e 4a 57 20 be
       0.04578476 0.033441816 0.3949986 -0.15658298
000150 0b 57 8a bc ba f9 d6 3d 51 1d fa 3d e7 83 cd 3d
       -0.016887208 0.1049685 0.12212623 0.10034924
000160 28 2b 4b 3e c2 ef 1f 3b 3b b2 78 be b3 37 ca bc
       0.19840682 0.0024404381 -0.2428674 -0.024684763
000170 41 0a 3e 3b 9e 47 90 bd e0 a2 4b 3d 11 f3 8f bd
       0.002899781 -0.0704491 0.049715877 -0.07028783
000180 a7 c2 e9 bc 75 e2 e4 3c 27 60 c0 3d bf e6 56 3d
       -0.0285352 0.027940014 0.093933396 0.05246615
000190 d4 58 9e 3e 97 d6 91 bd fd 54 93 bd e2 ef e5 3d
       0.30927145 -0.07121008 -0.071939446 0.11227395
0001a0 30 c8 09 bd 22 3f 8d be 0e 5e 24 be 3e 16 e5 bd
       -0.03363818 -0.2758723 -0.16051504 -0.11185883
0001b0 7f e3 47 be cd 5e 29 be a2 b1 5e be 4d cf de bc
       -0.19520377 -0.1654007 -0.21747449 -0.027198458
0001c0 ef 51 e9 bd 04 7b bc be ae 66 5d be 27 ec 00 bd
       -0.11392581 -0.36812603 -0.216212 -0.031475212
0001d0 b3 f5 1c be 31 02 ac 3e 8b 91 d9 3d 1c dc 0e bd
       -0.15328102 0.33595422 0.10623463 -0.03487788
0001e0 15 73 45 3e 0b 96 29 be 8f b5 a4 3e b4 16 10 3d
       0.19282182 -0.16561143 0.32169768 0.0351779
0001f0 13 c2 48 be c9 bc ba be 2e 9e 78 3d b8 b1 67 bd
       -0.19605283 -0.36472157 0.060697727 -0.05656597
000200 3d 44 46 be 57 54 1a be 1d ef 58 3e 4b de 77 be
       -0.19361968 -0.15071236 0.21184964 -0.24205892
000210 e7 bb b8 3c cb 79 a1 be 78 dc b7 be ab 5e c0 3e
       0.022550536 -0.31538233 -0.35910392 0.37572226
000220 67 a2 94 be e0 47 50 bd 22 3c 97 bd ba 55 58 be
       -0.29030153 -0.050849795 -0.07384516 -0.21126452
000230 84 ce 8e bc a7 df 79 3e f2 e9 39 3e 7a 41 85 3c
       -0.017432459 0.24401723 0.1815565 0.016266573
000240 03 fa c4 bd 4f 93 62 bd 86 38 b1 3a ed d4 fa 3c
       -0.096179985 -0.055316266 0.0013520874 0.030619109
000250 cf ee 80 bd 74 27 1d 3e 9d 1e 20 be 0c 62 a1 3d
       -0.06295549 0.15347081 -0.15636678 0.07880029
000260 14 f2 65 be 1d 59 28 bc 50 f8 af 3e 67 a3 71 b8
       -0.22455627 -0.0102751525 0.34369135 -5.7611058e-05
000270 8c 38 93 be a9 e5 8f bd a8 4d 78 3d 85 0b f0 3c
       -0.2875408 -0.07026226 0.060620934 0.029302368
000280 4c 06 89 bd d8 57 fb bd 69 57 2f be 0e a5 59 bd
       -0.06690654 -0.12272614 -0.17123188 -0.053135924
000290 f6 5e c3 3d d3 f1 a7 3d 7f c9 09 be 42 5d f3 bd
       0.09539597 0.08200421 -0.13455771 -0.11883022
0002a0 75 2d a8 3e c0 51 14 be 2f 1c 03 bf 4c 67 6b be
       0.3284718 -0.1448431 -0.5121488 -0.22988623
0002b0 0a b5 1d 3d 1d f6 a9 3d fc 0f a2 bd ef 85 b6 be
       0.03850273 0.082988955 -0.07913205 -0.35649058
0002c0 6e 9a 17 3d ba 93 96 be 73 03 5d be 0a c2 8b bc
       0.03701251 -0.2940958 -0.21583347 -0.017060298
0002d0 c3 9e 05 bf 4e 10 01 3c d4 5a 0a 3e 28 12 6c 3b
       -0.52195376 0.0078774225 0.1351121 0.0036021564
0002e0 50 79 7f be cd 0f 09 3e 9c d0 5d bd b0 3f 29 be
       -0.24948621 0.13384934 -0.054154024 -0.16528201
0002f0 fc 74 33 be 2f 69 45 3e 12 db 7e be 53 02 cd be
       -0.17525095 0.19278406 -0.24888256 -0.40040836
000300 d6 69 fb bd aa 34 f3 be c9 3e c9 3e e8 72 29 be
       -0.12276046 -0.47501117 0.39305714 -0.1654774
000310 94 45 f0 bd ba 81 35 3d 91 c2 d4 be dd 10 15 3e
       -0.11732021 0.04431317 -0.41554692 0.14557214
000320 48 9d c2 be c7 cc 4f 3d fc f0 24 bd 67 be 58 3e
       -0.3801062 0.0507324 -0.040268883 0.21166383
000330 71 69 2f 3e 00 19 1c 3e e2 dd e8 be f3 97 2c bf
       0.17130066 0.15243912 -0.45481783 -0.67419356
000340 da 99 72 3d 17 dd f0 be ac 9a e4 bd 1e d6 cc 3e
       0.059228756 -0.47043678 -0.11162314 0.40007108
000350 e1 cd 68 3c 21 b0 a6 be ce c3 6a be 59 c4 06 3e
       0.014209242 -0.3255625 -0.22926256 0.13160838
000360 ee 1e e2 3d 0a 6b c9 bc 41 b6 8b 3e 78 3e 60 be
       0.110410556 -0.024587173 0.27287486 -0.2189883
000370 6f 03 1d 3d ba 95 86 be 35 f1 be bd 73 d1 6e 3e
       0.038333353 -0.26286107 -0.0932335 0.23322086
000380 91 b3 29 3d 32 54 2c 3e 03 2e 79 bd cc 64 89 be
       0.041431013 0.16828993 -0.060834896 -0.26834714
000390 85 46 07 be 72 64 ed ba 91 ab 07 3e 55 a9 46 be
       -0.13210495 -0.00181116 0.13249041 -0.19400533
0003a0 eb a6 86 3c ac 54 5e 3e 89 f6 d6 bd ac f5 0a be
       0.016437015 0.21711987 -0.104962416 -0.13570279
0003b0 cb cb 82 bd f4 08 66 bd 57 a4 d0 be 5d 73 74 be
       -0.06386527 -0.056160882 -0.4075038 -0.23872133
0003c0 a6 aa 00 bf 11 82 47 be fa cf 94 be d8 4f 6b 3d
       -0.5026039 -0.1948321 -0.29064924 0.05744919
0003d0 2b 71 c4 3e 81 64 b5 be 5c bd 48 be 00 5e 84 bd
       0.3836759 -0.3542824 -0.19603485 -0.064632416
0003e0 43 c4 2d be cf 63 59 be 8f a7 da bd a2 55 ae be
       -0.16969399 -0.2122948 -0.106764905 -0.34049708
0003f0 b5 47 ff be 60 ec 71 be 98 42 7f bd ac bf 2f be
       -0.49859396 -0.23625326 -0.062319368 -0.17162961

model.2.bias f4 [64]
000000 1a 54 2e bd 03 e8 e7 bd 33 2f 6b 3d fe 03 ab 3d
       -0.042560674 -0.113235496 0.05741806 0.08350371
000010 a3 7e d6 3d 09 4c f2 bd 7a 26 ce bd 58 14 5c 3d
       0.10473373 -0.11830909 -0.100659326 0.05373034
000020 d9 d0 41 3e 04 f7 08 3f 1d 8e a9 bd 66 41 70 3e
       0.18927325 0.53501916 -0.08279059 0.23462448
000030 ab 4b 5a 3e ba 9a 63 bd f8 ae cc bd 6b 1f 22 be
       0.21317928 -0.05556748 -0.0999431 -0.15832298
000040 a1 6f 72 3c a8 1a ac bc b8 ec 8c 3d 90 81 30 3e
       0.014797122 -0.021008804 0.06881088 0.17236924
000050 a4 93 e0 bd 2e 80 ef 3e a1 b8 1b be f6 d8 f3 bd
       -0.1096566 0.4677748 -0.15207149 -0.119066164
000060 b8 dd 3a be 1d 01 83 bd e7 47 da 3c f5 5f 4e bd
       -0.18248641 -0.06396697 0.026645614 -0.05038448
000070 30 60 44 3e ce cb bb 3e b0 66 da 3d 43 18 6e bd
       0.19177318 0.36678928 0.10664117 -0.058128607
000080 70 b6 a4 3c c8 e1 9b 3e 54 4b be 3c 17 2d 0b be
       0.020106524 0.30445695 0.023229279 -0.13591419
000090 98 ef 2d be 25 52 5e be 91 66 53 3d 97 ca 78 3d
       -0.16985929 -0.21711023 0.051611487 0.06074008
0000a0 b0 21 c0 bd 16 df 0a 3f d7 45 cb 3d 83 50 19 be
       -0.093814254 0.5424665 0.0992543 -0.14972119
0000b0 a2 8c e4 bc 01 f4 d7 bd 8b 9d 07 be 38 26 30 be
       -0.02789909 -0.10544587 -0.13243692 -0.1720208
0000c0 60 b8 5e 3c 05 de eb bd 05 2c 43 be 93 ee 0e 3f
       0.013593763 -0.11516956 -0.19059761 0.55832785
0000d0 b3 b1 7c bd 41 8d 2a be 54 ab ce bc 28 78 89 bd
       -0.061692905 -0.16655447 -0.02522818 -0.06712371
0000e0 fc f0 48 be c2 1a 03 be ea f1 8d bc 0c 40 3d be
       -0.19623178 -0.12803176 -0.017327268 -0.18481463
0000f0 1e 0d d5 3c 07 12 b2 3e f9 72 37 3d 11 ab 16 be
       0.026007231 0.3477938 0.04478738 -0.14713694

model.4.weight f4 [4, 64]
000000 7a 12 96 be 10 c4 fe 3c 03 49 a7 3e b6 76 41 bf
       -0.29310971 0.03109935 0.3267289 -0.75571764
000010 b3 7f a6 3e a9 24 5c 3c 36 89 11 3d 0e f6 94 be
       0.32519302 0.013436475 0.035531245 -0.29093975
000020 9b 1d 8e 3e 57 0c 1a 3e 93 f2 b3 3e 7b 6e 38 3e
       0.27756962 0.1504377 0.35146007 0.18010895
000030 6c 8e b2 3d fc 31 c1 3c 30 50 1c bd 84 cd 76 be
       0.08718571 0.023583405 -0.03816241 -0.24101835
000040 c9 72 23 3e 32 26 11 be 58 1a 7e 3e 47 29 86 3e
       0.15961756 -0.14174727 0.24814737 0.26203367
000050 43 cf a3 be 91 ca 58 3e e9 56 c3 bd c5 c9 00 bf
       -0.31994066 0.21171023 -0.09538061 -0.50307876
000060 9c e4 1f be b4 a0 34 bf 5e 5c 90 be c7 36 90 3e
       -0.15614551 -0.70557714 -0.2819547 0.28166792
000070 c7 a3 11 3e 14 9a 0e 3e fa 3c 47 bf 03 85 2b 3e
       0.14222632 0.13925964 -0.7782742 0.16749959
000080 d3 4a 89 3e 05 91 4a 3e d2 e4 c6 3e c0 aa 16 3f
       0.268149 0.19781883 0.3884645 0.58854294
000090 12 cb ba bd c4 5e 02 bf 62 96 0f 3e 10 3c 8a 3e
       -0.09120764 -0.5092585 0.1402221 0.2699895
0000a0 e3 c0 16 3c eb 97 58 3e 18 62 fe 3d da 52 f0 bd
       0.009201261 0.21151702 0.12421054 -0.11734553
0000b0 47 4f a7 be a0 ba d4 3d a1 ea 91 3d 55 6c 90 bc
       -0.3267767 0.103871584 0.0712483 -0.017629782
0000c0 26 1f 07 3f 73 a1 9f 3e 7f 4f 7b be 1e 13 44 3e
       0.52781904 0.31177863 -0.24542044 0.19147918
0000d0 24 12 bf 3c 69 7f 60 be 6a 23 47 3e ad a0 87 3e
       0.02332408 -0.21923603 0.19447103 0.26489773
0000e0 6b cc c2 bd c0 0c 0c be d1 97 ce 3d b5 cc 72 3c
       -0.09511646 -0.13676739 0.100875504 0.014819314
0000f0 b8 de 99 be 9f 26 0f 3e 99 21 d5 3e 1a 89 47 3d
       -0.30052733 0.13979577 0.41627195 0.048714735
000100 df c5 a9 3d d3 52 c8 3c c2 33 a1 3e 84 54 bd be
       0.08289694 0.024453556 0.314848 -0.36978543
000110 57 f3 8e 3e 44 b9 ba 3e cc 5d 7f 3d ec 06 42 3e
       0.2792003 0.3646947 0.06234531 0.18947953
000120 5e a4 39 3e 1a e0 3d 3e 7b 99 05 3f 59 5f 22 3e
       0.18129107 0.18542519 0.5218732 0.15856685
000130 e8 dd 04 3e c3 2d 8a 3e 3a 5e 61 bc 90 12 2f be
       0.12975276 0.26988038 -0.0137553755 -0.17096925
000140 f2 9f 83 3e 8a f2 01 be 42 e1 54 3e 04 80 2f 3e
       0.25707966 -0.12690178 0.20789054 0.17138678
000150 e2 3d 57 be 2e 63 6c 3e 7c ac 1a 3d 70 d1 e3 be
       -0.210197 0.23084709 0.03776215 -0.44495726
000160 f3 39 37 be c5 90 07 bf 2c 9b fa bd df 95 02 3f
       -0.178932 -0.52955276 -0.12236628 0.51009935
000170 f3 5b 21 3e f2 af 53 3e 83 fb 9c 3e 8b f7 3e 3e
       0.15757732 0.20672587 0.30660638 0.18649118
000180 3c 20 98 3e 18 5f 60 3d 26 7b b7 3e 0e 78 1c 3f
       0.29712093 0.05477819 0.35836142 0.6112069
000190 4f 47 b3 bb 8e d9 88 be 98 49 36 3e d0 16 4d 3e
       -0.005471147 -0.2672848 0.17801511 0.20028234
0001a0 5d 10 29 be 0a 06 4a 3e 59 29 ee 3d 03 9e 20 be
       -0.16510148 0.19728866 0.1162898 -0.15685277
0001b0 9d b6 28 bf e4 30 31 3d a0 aa 9c 3d b0 27 1b bd
       -0.65903646 0.043259516 0.07649732 -0.037879646
0001c0 19 76 65 3e ac 62 7e 3e 1d 8b 03 be 73 ef 11 3e
       0.22408332 0.24842328 -0.12846036 0.14251499
0001d0 4e 42 08 3e 33 e2 00 be a6 98 26 3f cd 1f 35 3e
       0.13306543 -0.12586288 0.65076673 0.17687912
0001e0 0b e0 1d be fc 87 1d be 1b ac 02 bc 92 a9 aa bd
       -0.15417497 -0.15383905 -0.007975603 -0.08333124
0001f0 57 ea 1c be d9 4b 02 3e 0b 46 f5 3d 89 ff 9f 3c
       -0.15323769 0.12724246 0.1197625 0.019531028
000200 b2 c4 08 bf 08 12 14 3e e9 ba 8b 3e 2d 08 bf 3e
       -0.53425133 0.14460003 0.2729104 0.37310925
000210 2c 40 bf 3e 0a 96 0a 3e c8 80 8f 3e 90 1d cb 3e
       0.37353647 0.13533798 0.2802794 0.39670992
000220 21 8d f3 3d 8b b4 06 3e 62 aa 6b be 94 d5 87 3e
       0.118921526 0.13154809 -0.23014215 0.26530135
000230 20 5f 31 3e ae cb 02 3f 44 7e 8a bd b5 78 48 bd
       0.17321444 0.5109204 -0.067623645 -0.04894324
000240 1e f9 0d 3e 54 31 ad be c3 68 f7 bc e7 f9 be 3d
       0.13864562 -0.33826697 -0.030201321 0.09325009
000250 3b f2 af be 61 1c 8f 3e 28 24 ef be a1 b9 c2 3e
       -0.34364495 0.2795134 -0.46707273 0.3803225
000260 cd 82 e1 3d 28 d9 e6 be 26 b9 1c be 0e cc a2 3c
       0.110112764 -0.45087552 -0.15305004 0.019872691
000270 d6 78 0d 3e 87 b9 8a 3e c4 e6 a9 be 7a 4a c7 3c
       0.13815627 0.2709467 -0.33183873 0.024327505
000280 a6 1e b7 bd aa 60 55 3d da 62 f0 3e 75 fc 1b 3f
       -0.089413926 0.05209414 0.46950418 0.60932094
000290 e8 c2 8f 3e 07 10 d1 be 74 33 d2 3d f3 ee 3e 3e
       0.2807839 -0.4083254 0.1026372 0.1864584
0002a0 6e 37 57 3f 3b 26 3e 3e 7f 83 92 3e a6 b1 24 bd
       0.84068954 0.18569271 0.2861595 -0.04020848
0002b0 49 c2 45 be b1 83 45 bf 40 82 88 3e b6 15 d5 3e
       -0.19312395 -0.7715407 0.26661873 0.41618127
0002c0 a1 43 38 3e b1 6b 5d 3e f8 f1 14 be c4 13 8d 3e
       0.17994548 0.21623112 -0.14545429 0.27554142
0002d0 36 e2 b9 be 5a b2 2e ba 25 c8 35 3f cd 72 88 3e
       -0.36305398 -0.00066641497 0.7100852 0.26650086
0002e0 a6 ee 01 3c be da e9 bd 3e 78 ff 3d 13 37 9e be
       0.007930433 -0.11418675 0.12474106 -0.30901393
0002f0 8e 56 1b be 41 0d 30 3e b2 a5 98 3e 9a eb 15 bd
       -0.15169737 0.17192556 0.29813915 -0.03660164
000300 a9 3c cf 3e c2 3a c7 3e ac 63 b5 3e 60 08 94 be
       0.40475968 0.38912016 0.35427606 -0.2891264
000310 33 94 88 3e 31 98 90 3e 7d 98 08 3e cb 34 54 3e
       0.26675567 0.28241113 0.1333942 0.20723264
000320 8e 8c 51 3c 53 9a 4f 3e 9d 48 2c 3f e2 25 bc 3d
       0.0127898585 0.20273714 0.672983 0.09186913
000330 67 28 16 3e 2d 90 fd bd c2 f9 32 3d e6 8e 9c be
       0.1466385 -0.12381015 0.04369522 -0.30577773
000340 e4 67 b7 3e 94 40 0a be a7 19 0d 3e 3f 6d cf 3d
       0.3582145 -0.13501197 0.13779317 0.10128259
000350 05 59 9e bd 63 86 84 3e 77 9c 01 bf f6 31 f8 be
       -0.07731823 0.2588378 -0.5062937 -0.48475617
000360 bc 66 cf 3d bd f6 17 bf f5 10 d2 bd c4 49 f9 3e
       0.10127017 -0.5936087 -0.102571405 0.4868909
000370 26 68 79 3e 29 fc 0b 3e f6 0f da be 4a 09 71 3e
       0.24356136 0.1367041 -0.42590302 0.235387
000380 79 cc 23 3d d2 12 19 3e 93 0c 50 3e 4b 54 16 3f
       0.039989922 0.14948586 0.20317297 0.5872237
000390 9b ee 5d be c8 e0 f6 be e4 75 ab 3e b0 c4 30 3d
       -0.21673052 -0.4821837 0.3348838 0.043156326
0003a0 3e ba c7 be b6 f8 1f 3e 25 3a a8 3d f6 be 16 be
       -0.3900928 0.1562222 0.08214215 -0.14721283
0003b0 2c 94 0c 3e 28 a3 7d be aa e7 02 3e 5d ab 8b 3d
       0.13728398 -0.2476927 0.12783685 0.06819794
0003c0 17 dd 18 3f bc 1d 54 3e 36 e1 24 3e 40 c8 3f 3e
       0.59712356 0.20714468 0.16101536 0.18728733
0003d0 bc 64 1c bf 57 30 1c be 1c 70 6f bd af e1 5d 3e
       -0.6109121 -0.15252815 -0.058456525 0.21668123
0003e0 e0 fb 82 3d 5d b2 3b be 74 92 8e be 39 e3 73 be
       0.063956976 -0.18329759 -0.2784611 -0.23817147
0003f0 6d 58 9d 3b 9d 72 64 3e 49 21 b2 bd 47 9b 97 3d
       0.004801801 0.22309346 -0.08697755 0.07402664

model.4.bias f4 [4]
000000 76 56 b0 3e fb d7 9f 3e be ab 75 3e 55 d1 95 3e
       0.34440964 0.31219468 0.23991296 0.2926127
